…
pout=0.1, embedding_normalize=True, pooler_dropout=0.1, encoder_layers=12, encoder_embed_dim=768, encoder_ffn_embed_dim=3072, encoder_attention_heads=12, activation_fn='gelu', pooler_activation_fn='tanh', activation_dropout=0.0, encoder_normalize_before=False)
| [input] dictionary: 50265 types
| [label] dictionary: 9 types
| loaded 872 examples from: ../glue_data/SST-2-bin/input0/valid
| loaded 872 examples from: ../glue_data/SST-2-bin/label/valid
| Loaded valid with #samples: 872
RobertaModel(
  (decoder): RobertaEncoder(
    (sentence_encoder): TransformerSentenceEncoder(
      (embed_tokens): Embedding(50265, 768, padding_idx=1)
      (embed_positions): LearnedPositionalEmbedding(514, 768, padding_idx=1)
      (layers): ModuleList(
        (0): TransformerSentenceEncoderLayer(
          (self_attn): MultiheadAttention(
            (in_proj): Linear(in_features=768, out_features=2304, bias=True)
            (out_proj): Linear(in_features=768, out_features=768, bias=True)
          )
          (fc1): Linear(in_features=768, out_features=3072, bias=True)
          (fc2): Linear(in_features=3072, out_features=768, bias=True)
          (final_layer_norm): LayerNorm((768,), eps=1e-05, elementwise_affine=True)
          (self_attn_layer_norm): LayerNorm((768,), eps=1e-05, elementwise_affine=True)
        )
        (1): TransformerSentenceEncoderLayer(
          (self_attn): MultiheadAttention(
            (in_proj): Linear(in_features=768, out_features=2304, bias=True)
            (out_proj): Linear(in_features=768, out_features=768, bias=True)
          )
          (fc1): Linear(in_features=768, out_features=3072, bias=True)
          (fc2): Linear(in_features=3072, out_features=768, bias=True)
          (final_layer_norm): LayerNorm((768,), eps=1e-05, elementwise_affine=True)
          (self_attn_layer_norm): LayerNorm((768,), eps=1e-05, elementwise_affine=True)
        )
        (2): TransformerSentenceEncoderLayer(
          (self_attn): MultiheadAttention(
            (in_proj): Linear(in_features=768, out_features=2304, bias=True)
            (out_proj): Linear(in_features=768, out_features=768, bias=True)
          )
          (fc1): Linear(in_features=768, out_features=3072, bias=True)
          (fc2): Linear(in_features=3072, out_features=768, bias=True)
          (final_layer_norm): LayerNorm((768,), eps=1e-05, elementwise_affine=True)
          (self_attn_layer_norm): LayerNorm((768,), eps=1e-05, elementwise_affine=True)
        )
        (3): TransformerSentenceEncoderLayer(
          (self_attn): MultiheadAttention(
            (in_proj): Linear(in_features=768, out_features=2304, bias=True)
            (out_proj): Linear(in_features=768, out_features=768, bias=True)
          )
          (fc1): Linear(in_features=768, out_features=3072, bias=True)
          (fc2): Linear(in_features=3072, out_features=768, bias=True)
          (final_layer_norm): LayerNorm((768,), eps=1e-05, elementwise_affine=True)
          (self_attn_layer_norm): LayerNorm((768,), eps=1e-05, elementwise_affine=True)
        )
        (4): TransformerSentenceEncoderLayer(
          (self_attn): MultiheadAttention(
            (in_proj): Linear(in_features=768, out_features=2304, bias=True)
            (out_proj): Linear(in_features=768, out_features=768, bias=True)
          )
          (fc1): Linear(in_features=768, out_features=3072, bias=True)
          (fc2): Linear(in_features=3072, out_features=768, bias=True)
          (final_layer_norm): LayerNorm((768,), eps=1e-05, elementwise_affine=True)
          (self_attn_layer_norm): LayerNorm((768,), eps=1e-05, elementwise_affine=True)
        )
        (5): TransformerSentenceEncoderLayer(
          (self_attn): MultiheadAttention(
            (in_proj): Linear(in_features=768, out_features=2304, bias=True)
            (out_proj): Linear(in_features=768, out_features=768, bias=True)
          )
          (fc1): Linear(in_features=768, out_features=3072, bias=True)
          (fc2): Linear(in_features=3072, out_features=768, bias=True)
          (final_layer_norm): LayerNorm((768,), eps=1e-05, elementwise_affine=True)
          (self_attn_layer_norm): LayerNorm((768,), eps=1e-05, elementwise_affine=True)
        )
        (6): TransformerSentenceEncoderLayer(
          (self_attn): MultiheadAttention(
            (in_proj): Linear(in_features=768, out_features=2304, bias=True)
            (out_proj): Linear(in_features=768, out_features=768, bias=True)
          )
          (fc1): Linear(in_features=768, out_features=3072, bias=True)
          (fc2): Linear(in_features=3072, out_features=768, bias=True)
          (final_layer_norm): LayerNorm((768,), eps=1e-05, elementwise_affine=True)
          (self_attn_layer_norm): LayerNorm((768,), eps=1e-05, elementwise_affine=True)
        )
        (7): TransformerSentenceEncoderLayer(
          (self_attn): MultiheadAttention(
            (in_proj): Linear(in_features=768, out_features=2304, bias=True)
            (out_proj): Linear(in_features=768, out_features=768, bias=True)
          )
          (fc1): Linear(in_features=768, out_features=3072, bias=True)
          (fc2): Linear(in_features=3072, out_features=768, bias=True)
          (final_layer_norm): LayerNorm((768,), eps=1e-05, elementwise_affine=True)
          (self_attn_layer_norm): LayerNorm((768,), eps=1e-05, elementwise_affine=True)
        )
        (8): TransformerSentenceEncoderLayer(
          (self_attn): MultiheadAttention(
            (in_proj): Linear(in_features=768, out_features=2304, bias=True)
            (out_proj): Linear(in_features=768, out_features=768, bias=True)
          )
          (fc1): Linear(in_features=768, out_features=3072, bias=True)
          (fc2): Linear(in_features=3072, out_features=768, bias=True)
          (final_layer_norm): LayerNorm((768,), eps=1e-05, elementwise_affine=True)
          (self_attn_layer_norm): LayerNorm((768,), eps=1e-05, elementwise_affine=True)
        )
        (9): TransformerSentenceEncoderLayer(
          (self_attn): MultiheadAttention(
            (in_proj): Linear(in_features=768, out_features=2304, bias=True)
            (out_proj): Linear(in_features=768, out_features=768, bias=True)
          )
          (fc1): Linear(in_features=768, out_features=3072, bias=True)
          (fc2): Linear(in_features=3072, out_features=768, bias=True)
          (final_layer_norm): LayerNorm((768,), eps=1e-05, elementwise_affine=True)
          (self_attn_layer_norm): LayerNorm((768,), eps=1e-05, elementwise_affine=True)
        )
        (10): TransformerSentenceEncoderLayer(
          (self_attn): MultiheadAttention(
            (in_proj): Linear(in_features=768, out_features=2304, bias=True)
            (out_proj): Linear(in_features=768, out_features=768, bias=True)
          )
          (fc1): Linear(in_features=768, out_features=3072, bias=True)
          (fc2): Linear(in_features=3072, out_features=768, bias=True)
          (final_layer_norm): LayerNorm((768,), eps=1e-05, elementwise_affine=True)
          (self_attn_layer_norm): LayerNorm((768,), eps=1e-05, elementwise_affine=True)
        )
        (11): TransformerSentenceEncoderLayer(
          (self_attn): MultiheadAttention(
            (in_proj): Linear(in_features=768, out_features=2304, bias=True)
            (out_proj): Linear(in_features=768, out_features=768, bias=True)
          )
          (fc1): Linear(in_features=768, out_features=3072, bias=True)
          (fc2): Linear(in_features=3072, out_features=768, bias=True)
          (final_layer_norm): LayerNorm((768,), eps=1e-05, elementwise_affine=True)
          (self_attn_layer_norm): LayerNorm((768,), eps=1e-05, elementwise_affine=True)
        )
      )
      (emb_layer_norm): LayerNorm((768,), eps=1e-05, elementwise_affine=True)
    )
    (lm_head): RobertaLMHead(
      (dense): Linear(in_features=768, out_features=768, bias=True)
      (layer_norm): LayerNorm((768,), eps=1e-05, elementwise_affine=True)
    )
  )
  (classification_heads): ModuleDict(
    (sentence_classification_head): RobertaClassificationHead(
      (dropout): Dropout(p=0.1, inplace=False)
      (out_proj): Linear(in_features=768, out_features=2, bias=True)
    )
  )
)
| model roberta_base, criterion SentencePredictionCriterion
| num. model params: 145959515 (num. trained: 145959515)
| training on 1 GPUs
| max tokens per GPU = 4000 and max sentences per GPU = 25
| no existing checkpoint found ../roberta.base/model.pt
| loading train data for epoch 0
| loaded 67349 examples from: ../glue_data/SST-2-bin/input0/train
…
